Model: "sequential"
_________________________________________________________________
Layer (type)                 Output Shape              Param #   
=================================================================
flatten (Flatten)            (None, 784)               0         
_________________________________________________________________
dense (Dense)                (None, 512)               401920    
_________________________________________________________________
dense_1 (Dense)              (None, 256)               131328    
_________________________________________________________________
dense_2 (Dense)              (None, 128)               32896     
_________________________________________________________________
dropout (Dropout)            (None, 128)               0         
_________________________________________________________________
dense_3 (Dense)              (None, 10)                1290      
=================================================================
Total params: 567,434
Trainable params: 567,434
Non-trainable params: 0
_________________________________________________________________

Epoch 1/5
1875/1875 [==============================] - 4s 2ms/step - loss: 0.2116 - accuracy: 0.9377
Epoch 2/5
1875/1875 [==============================] - 4s 2ms/step - loss: 0.0940 - accuracy: 0.9716
…
