Summary
Model: "sequential"
_________________________________________________________________
Layer (type)                 Output Shape              Param #
=================================================================
conv2d (Conv2D)              (None, 26, 26, 64)        640
_________________________________________________________________
max_pooling2d (MaxPooling2D) (None, 13, 13, 64)        0
_________________________________________________________________
conv2d_1 (Conv2D)            (None, 11, 11, 64)        36928
_________________________________________________________________
max_pooling2d_1 (MaxPooling2 (None, 5, 5, 64)          0
_________________________________________________________________
flatten (Flatten)            (None, 1600)              0
_________________________________________________________________
dense (Dense)                (None, 512)               819712
_________________________________________________________________
dense_1 (Dense)              (None, 256)               131328
_________________________________________________________________
dense_2 (Dense)              (None, 128)               32896
_________________________________________________________________
dropout (Dropout)            (None, 128)               0
_________________________________________________________________
dense_3 (Dense)              (None, 10)                1290
=================================================================
Total params: 1,022,794
Trainable params: 1,022,794
Non-trainable params: 0
_________________________________________________________________

Training...
Epoch 1/5
1875/1875 [==============================] - 33s 18ms/step - loss: 0.1343 - accuracy: 0.9587
Epoch 2/5
1875/1875 [==============================] - 33s 17ms/step - loss: 0.0488 - accuracy: 0.9864
…
